compose/train/outputs/Exp/best.pth (torch, 311868 bytes, 44 tensors)

weight f4 [64, 2]
-0.47674224 0.17647533 0.6081181 -0.34431612 0.67851734 -0.69812053 0.24558687 0.18806964
-0.21745326 -0.22328182 -0.5527129 -0.14059123 -0.26253486 -0.17041826 0.5876886 0.2141992
-0.70217836 -0.4211085 0.5645346 -0.007852121 -0.27898386 0.39939934 0.65951514 -0.49644604
0.70200413 -0.18630302 0.09061748 -0.56887126 -0.6047612 -0.5280701 -0.51890916 -0.6867178
-0.23661019 0.07584706 0.4975084 0.30874816 -0.6286175 0.54461753 -0.15958533 -0.69630265
0.6286348 -0.52608997 0.60465026 0.4536836 -0.6921221 -0.27394533 0.47705144 0.050569415
0.04137026 -0.37335804 -0.61810464 -0.52046907 0.1775649 -0.60050654 -0.5987977 0.4966632
-0.14160013 0.69355977 -0.20470567 -0.022791285 -0.016567824 0.5480079 0.54821134 -0.026404308
0.20396309 0.2758669 -0.18947083 -0.37609133 -0.0024657215 0.675533 0.43371257 -0.41473615
-0.38062084 -0.35738888 0.18622951 0.21101049 -0.123502426 -0.5223538 0.62072664 0.3449378
-0.06833857 0.30957693 0.6112762 -0.23472911 0.35163158 -0.59376955 0.6645707 0.5537536
-0.40769225 -0.5020272 -0.074201 -0.09113885 0.49952984 0.17317918 0.001809342 0.03446286
-0.60240954 -0.05040702 -0.49467647 0.18943018 -0.3675983 0.23712379 0.29808894 -0.4044154
0.562719 -0.40732 0.6835524 0.33211958 -0.6470805 -0.34780467 0.0957794 0.561593
0.065197505 -0.46668962 0.09666819 0.6755618 0.48336962 0.4555484 -0.18428482 0.06910912
-0.35642648 0.7074617 -0.4540558 -0.6034682 -0.38749406 0.58871806 0.12987964 -0.042658072
00000000: 8f17 f4be f3b5 343e a1ad 1b3f 344a b0be
00000010: 50b3 2d3f 07b8 32bf 207b 7b3e 5495 403e
00000020: 11ac 5ebe fda3 64be 987e 0dbf 26f7 0fbe
00000030: f86a 86be 2082 2ebe c372 163f 0957 5b3e
00000040: f6c1 33bf 899b d7be 5785 103f 2fa6 00bc
00000050: f9d6 8ebe 127e cc3e fcd5 283f 2d2e febe
00000060: 8bb6 333f 38c6 3ebe a895 b93d 8ca1 11bf
00000070: a1d1 1abf 9a2f 07bf 3bd7 04bf bdcc 2fbf
00000080: f149 72be b455 9b3d 6cb9 fe3e 3d14 9e3e
00000090: 14ed 20bf 0e6c 0b3f 566a 23be e440 32bf
000000a0: 36ee 203f d5ad 06bf 5cca 1a3f 3849 e83e
000000b0: ea2e 31bf 9042 8cbe 1640 f43e e021 4f3d
000000c0: dd73 293d c928 bfbe 1b3c 1ebf 763d 05bf
000000d0: 93d3 353e ccba 19bf ce4a 19bf a44a fe3e
000000e0: a0ff 10be 228d 313f 5d9e 51be cab4 babc
000000f0: 3fb9 87bc 3f4a 0c3f 9457 0c3f d94d d8bc
00000100: b3db 503e 6d3e 8d3e a404 42be 0b8f c0be
00000110: f197 21bb bbef 2c3f 930f de3e 4c58 d4be
00000120: bce0 c2be adfb b6be f3b2 3e3e 2213 583e
00000130: d7ee fcbd fbb8 05bf f1e7 1e3f b09b b03e
00000140: 18f5 8bbd de80 9e3e 997c 1c3f d45c 70be
00000150: 0e09 b43e 4801 18bf 4e21 2a3f ccc2 0d3f
00000160: 0abd d0be db84 00bf b2f6 97bd 01a7 babd
00000170: 60c2 ff3e e255 313e 7127 ed3a ee28 0d3d
00000180: 8337 1abf 9777 4ebd 3c46 fdbe fcf9 413e
00000190: d835 bcbe 94d0 723e 1d9f 983e 890f cfbe
000001a0: 5a0e 103f 3f8c d0be 4afd 2e3f 940b aa3e
000001b0: 11a7 25bf 7413 b2be fd27 c43d 8fc4 0f3f
000001c0: 4586 853d f1f1 eebe f9f9 c53d 9ef1 2c3f
000001d0: 397c f73e a43d e93e 29b5 3cbe 1589 8d3d
000001e0: 887d b6be 361c 353f 007a e8be e47c 1abf
000001f0: 9f65 c6be 3ab6 163f 2bff 043e 3bba 2ebd

bias f4 [64]
0.66618365 -0.21980445 0.58489007 0.6938105 -0.49728805 -0.31887537 -0.60167277 0.029336441
0.34911403 0.42319867 0.1420223 0.65743226 0.55013126 0.5011809 0.68739855 -0.57847905
0.22364119 -0.26643553 0.4660043 -0.40399057 0.4679009 -0.18031833 -0.3076037 -0.5378858
0.3496878 0.2269353 -0.3467311 0.23332293 -0.38833088 0.32640162 0.17529254 -0.6327811
0.44106242 -0.47425634 -0.097295195 -0.33486068 0.17553107 0.082407594 0.012307148 0.18858214
0.04090531 0.32356748 -0.62130386 0.4142818 0.5921346 -0.2575687 -0.5211131 0.37252983
-0.016685104 0.2733445 -0.50560564 -0.0862831 -0.08652295 -0.36283916 -0.49633518 -0.23717259
-0.3541061 -0.34288236 -0.26872653 -0.25072578 -0.039210618 0.4714745 -0.094798185 -0.5412387
00000000: 038b 2a3f 6b14 61be 5bbb 153f 919d 313f
00000010: 8a9c febe a243 a3be 3a07 1abf fa52 f03c
00000020: 13bf b23e 7fad d83e 4b6e 113e 7b4d 283f
00000030: 67d5 0c3f 644d 003f 5af9 2f3f 3417 14bf
00000040: 3202 653e 3d6a 88be 1e98 ee3e dad7 cebe
00000050: b590 ef3e 5ea5 38be 3b7e 9dbe e2b2 09bf
00000060: 480a b33e ba61 683e bd86 b1be 35ec 6e3e
00000070: 4ed3 c6be 1d1e a73e e37f 333e f1fd 21bf
00000080: efd2 e13e bad1 f2be b442 c7bd dc72 abbe
00000090: 6bbe 333e 50c5 a83d eca3 493c ad1b 413e
000000a0: 548c 273d a3aa a53e c50d 1fbf be1c d43e
000000b0: 2296 173f 0be0 83be ab67 05bf 3bbc be3e
000000c0: 33af 88bc cff3 8b3e 5f6f 01bf 32b5 b0bd
000000d0: f232 b1bd 0ec6 b9be a51f febe 5fdd 72be
000000e0: 654d b5be 478e afbe 8696 89be 215f 80be
000000f0: 509b 20bd 1b65 f13e 8d25 c2bd 9f8e 0abf

weight f4 [64, 1]
-0.78799486 -0.6123924 0.40532255 0.43493947 0.57896644 -0.8398043 0.31974986 0.84653443
0.7477915 0.55372864 0.82911766 0.2391203 0.5828623 -0.10372497 -0.2264491 0.6671744
-0.9592719 -0.98113054 0.64350086 -0.5711102 -0.121646225 -0.69610107 -0.1474958 -0.9008838
-0.39836067 0.91835815 0.3398517 0.38477302 -0.7967149 -0.1260338 0.16265263 -0.6037262
0.21535595 0.54868865 0.99569875 -0.08961661 0.018109346 0.50108576 0.040401988 0.1731146
-0.67212045 0.9276254 -0.7998026 -0.19301133 -0.6381274 0.42191473 0.14064758 0.7805143
-0.045518704 -0.8762651 -0.60711646 0.92291546 0.61583656 0.51030385 0.106610514 0.3451854
0.4196583 0.030789977 0.014443204 0.26880905 0.116712324 -0.034401454 0.66912514 0.42651308
00000000: 08ba 49bf c0c5 1cbf 7086 cf3e 63b0 de3e
00000010: 2537 143f 6afd 56bf 41b6 a33e 7bb6 583f
00000020: 446f 3f3f 29c1 0d3f 0e41 543f f4db 743e
00000030: 7736 153f c26d d4bd 46e2 67be f1cb 2a3f
00000040: d892 75bf 5f2b 7bbf 79bc 243f 4734 12bf
00000050: a821 f9bd ae33 32bf 2409 17be 52a0 66bf
00000060: eef5 cbbe 8519 6b3f 0b01 ae3e f800 c53e
00000070: 82f5 4bbf 010f 01be 698e 263e cd8d 1abf
00000080: 4586 5c3e dc76 0c3f 1de6 7e3f ea88 b7bd
00000090: 0d5a 943c 2847 003f 8e7c 253d f444 313e
000000a0: 1610 2cbf dc78 6d3f ddbf 4cbf c3a4 45be
000000b0: 515c 23bf 3505 d83e eb05 103e c9cf 473f
000000c0: d271 3abd e952 60bf fc6b 1bbf 3044 6c3f
000000d0: 77a7 1d3f 46a3 023f 9d56 da3d 24bc b03e
000000e0: 74dd d63e 433b fc3c 30a3 6c3c 57a1 893e
000000f0: df06 ef3d 8ae8 0cbd c94b 2b3f ec5f da3e

bias f4 [64]
0.636367 0.94809204 0.5332276 0.47040483 -0.5224821 -0.44600612 0.73333603 0.58725506
0.43732676 0.40820625 0.92312646 0.21553543 0.10796888 0.59678817 0.9407526 0.69251007
-0.56232154 -0.8079507 0.41023198 -0.3847284 -0.25522983 0.24916904 0.5476509 0.87608397
-0.6043803 -0.30393398 -0.13890459 0.95489013 -0.67271423 -0.09418581 -0.74802786 -0.92144173
0.45282534 -0.89304984 0.31752005 -0.9211416 -0.06005854 0.30907637 0.6930666 0.4715125
-0.7589676 -0.16428144 0.21559429 0.111589134 0.018642614 -0.26134297 0.13919088 -0.83731794
0.88279694 -0.0047996533 -0.64780134 0.72524476 0.78070563 -0.5656496 -0.9019514 -0.7103746
-0.369928 -0.015987424 0.85566354 0.19550425 -0.28305984 0.20969747 -0.4958766 0.03368976
00000000: f3e8 223f 29b6 723f 9b81 083f e7d8 f03e
00000010: 63c1 05bf ea5a e4be e9bb 3b3f 5956 163f
00000020: 4be9 df3e 6900 d13e 0452 6c3f 52b5 5c3e
00000030: ca1e dd3d 1cc7 183f 2ad5 703f 5748 313f
00000040: 4ef4 0fbf dbd5 4ebf ed09 d23e 1ffb c4be
00000050: 7cad 82be 2b26 7f3e d932 0c3f 0a47 603f
00000060: abb8 1abf 3c9d 9bbe 013d 0ebe ae73 743f
00000070: 0037 2cbf 7de4 c0bd c17e 3fbf 9be3 6bbf
00000080: b9d8 e73e ea9e 64bf fd91 a23e f0cf 6bbf
00000090: f2ff 75bd 423f 9e3e d06c 313f 166a f13e
000000a0: b34b 42bf 6539 28be c0c4 5c3e d888 e43d
000000b0: 65b8 983c bfce 85be 0e88 0e3e 785a 56bf
000000c0: fbfe 613f 6946 9dbb 4fd6 25bf a4a9 393f
000000d0: 53dc 473f 6ace 10bf 49e6 66bf 1cdb 35bf
000000e0: 3467 bdbe 0ff8 82bc c40c 5b3f 4432 483e
000000f0: 38ed 90be efba 563e 8ae3 fdbe 46fe 093d

z_in f4 [5, 64]
-1.3966527 0.80823755 -0.72722775 0.036372267 0.753469 0.18435735 -0.34358776 -1.2375989
1.1127319 0.4618472 0.74172693 0.59109896 0.7272285 2.4374886 0.42306182 -0.043995056
0.7968327 1.5089024 0.7210216 -0.23113872 1.0000427 -1.4176049 -0.2910235 0.21091078
1.8975275 0.54860836 -0.8741711 0.029341152 0.70643026 0.14902885 1.3454343 1.9310124
0.63404137 1.2416172 -0.33584577 -0.5873149 0.20170696 -1.9825087 -1.4444431 0.7575961
0.6207764 -0.11789648 -2.393274 0.2719809 1.2093375 0.7180259 0.69693905 0.091358475
-0.4018672 1.01526 -0.3543866 0.019151893 -0.045241628 0.8241555 -0.8214622 0.34872493
-0.24167907 0.72305834 0.3615162 -0.09897335 -1.8063524 0.6321694 -1.0646608 -2.1205475
0.83889294 -1.5245754 0.14253211 0.19999126 1.3745222 -0.9372467 -0.9451282 0.12198821
1.2827802 0.17414962 -0.2702096 1.1040667 0.21044876 0.46696487 -1.2492898 0.45665303
-0.65776604 -1.4281806 0.84774566 -0.3077469 0.21438342 0.0328577 0.04753879 0.7922653
0.14653341 0.4101271 0.6661383 -1.6694096 0.8328364 -1.7530777 -0.34537968 0.07219077
-0.7148422 -1.4833932 -0.5615226 -1.0876049 -0.79557776 -1.249887 1.1842027 -0.435027
-1.666476 -0.44890776 0.6169035 0.49490273 -0.75460637 0.24034946 -2.0207016 -0.65079737
-1.0748149 0.20663929 -0.6169166 -0.9870673 0.13657412 2.281415 0.9703625 0.63359797
0.22841863 0.67414534 -0.8244178 -0.35820496 -0.9308684 0.72480935 0.084976345 0.023038596
-0.3957997 1.4344594 -1.3749676 -0.6877951 -1.81551 0.36590305 -2.0084183 -0.39010307
0.61603665 0.30570152 -1.6658818 -0.41645297 0.3561797 -0.6685467 -0.61182344 -1.0020248
-2.2611454 -0.0629833 0.34468788 1.1189066 0.20236498 1.2842076 -0.56336457 0.60611826
-0.05830798 -0.23351859 0.3783487 0.36538497 -1.1140257 -0.06231721 1.6540401 1.6321058
0.045699485 -1.1645229 -1.7565035 0.76813334 -1.7376685 0.9048605 -1.1489804 0.7874704
0.016093573 -0.84246254 -0.17769521 -0.75075376 0.0027654374 0.77990246 0.8424243 -0.7246674
-0.3778678 0.14155887 -0.16847762 0.5751621 0.9957759 -0.33146068 -0.5177546 1.41114
-0.30848673 -0.057107393 1.167697 0.4139117 0.22578345 -0.6855679 -0.70454425 -0.20832089
-1.8295426 0.5121688 -0.18056488 0.91800183 0.1594282 -0.3121101 -0.843698 1.0712316
2.0786045 -0.75179946 0.9867748 0.071742885 -0.6493832 -0.9484223 0.61985576 0.9961736
1.0677474 0.55351424 0.22644708 0.021776384 -0.253494 -1.658395 -0.56401616 0.90011364
0.85536075 -0.2509251 0.095464095 -0.42268792 0.48494914 -0.15831828 -0.085876055 -1.2660292
0.064584754 -0.28529575 -1.8147398 -0.511777 0.38078937 0.6441662 -0.83964545 -0.33616415
1.1688063 -0.88775647 -1.6019489 -1.0339317 1.0207969 0.26031446 -2.1908169 -0.01018287
1.3740304 -1.9227772 -0.8710501 -2.0675237 1.4758664 0.54554886 -0.3630118 1.377845
1.7245024 -1.256811 1.1717637 -1.2320198 0.14169131 0.8897 0.5751426 1.0507345
00000000: 84c5 b2bf a8e8 4e3f 992b 3abf 16fb 143d
00000010: 58e3 403f 2cc8 3c3e bcea afbe a469 9ebf
00000020: 006e 8e3f 3c77 ec3e d1e1 3d3f 4352 173f
00000030: a62b 3a3f d0ff 1b40 8f9b d83e 2934 34bd
00000040: 3afd 4b3f b723 c13f df94 383f a1af 6cbe
00000050: 6601 803f 1474 b5bf 0801 95be fff8 573e
00000060: 2ee2 f23f 9971 0c3f adc9 5fbf db5c f03c
00000070: 9dd8 343f 059b 183e 3137 ac3f 6a2b f73f
00000080: 8950 223f 50ed 9e3f faf3 abbe 455a 16bf
00000090: 458c 4e3e d8c2 fdbf 83e3 b8bf d1f1 413f
000000a0: 34eb 1e3f b673 f1bd 672b 19c0 1541 8b3e
000000b0: 92cb 9a3f 8cd0 373f 996a 323f 271a bb3d
000000c0: 8ac1 cdbe 0af4 813f 2972 b5be 6ee4 9c3c
000000d0: 494f 39bd dbfb 523f 594b 52bf 138c b23e
000000e0: b87a 77be 5a1a 393f a718 b93e 8ab2 cabd
000000f0: 8e36 e7bf dbd5 213f ce46 88bf 0db7 07c0
00000100: b0c1 563f 4925 c3bf f0f3 113e 82ca 4c3e
00000110: 58f0 af3f 66ef 6fbf ecf3 71bf f4d4 f93d
00000120: 2432 a43f 4754 323e ea58 8abe 0f52 8d3f
00000130: e17f 573e 0516 ef3e bae8 9fbf 6dce e93e
00000140: 5b63 28bf 9fce b6bf dc05 593f 0091 9dbe
00000150: 5487 5b3e cc95 063d 09b8 423d e6d1 4a3f
00000160: db0c 163e 2efc d13e 0a88 2a3f 37af d5bf
00000170: c434 553f da64 e0bf 9bd5 b0be c1d8 933d
00000180: e6ff 36bf d4df bdbf f2bf 0fbf a336 8bbf
00000190: fcaa 4bbf 4cfc 9fbf f493 973f dcbb debe
000001a0: 164f d5bf 3dd7 e5be 63ed 1d3f e463 fd3e
000001b0: e22d 41bf 2b1e 763e 2d53 01c0 a89a 26bf
000001c0: 8993 89bf 4099 533e 3fee 1dbf 71b0 7cbf
000001d0: 16da 0b3e b402 1240 ad69 783f 7a33 223f
000001e0: 93e6 693e ca94 2c3f 0c0d 53bf a466 b7be
000001f0: 644d 6ebf 1b8d 393f 1408 ae3d 70bb bc3c
00000200: 42a6 cabe 5e9c b73f f0fe afbf 5713 30bf
00000210: a262 e8bf a557 bb3e ed89 00c0 97bb c7be
00000220: 94b4 1d3f e984 9c3e 9d3b d5bf 5339 d5be
00000230: 305d b63e e025 2bbf 76a0 1cbf 5942 80bf
00000240: 9bb6 10c0 63fd 80bd ee7a b03e 5538 8f3f
00000250: c438 4f3e ea60 a43f a938 10bf 912a 1b3f
00000260: 59d4 6ebd 7f1f 6fbe ecb6 c13e bd13 bb3e
00000270: 6598 8ebf 5540 7fbd 96b7 d33f d8e8 d03f
00000280: 622f 3b3d 160f 95bf 1bd5 e0bf 63a4 443f
00000290: ec6b debf f0a4 673f ca11 93bf a997 493f
000002a0: abd6 833c a0ab 57bf bcf5 35be 6631 40bf
000002b0: 573c 353b b0a7 473f 1ea9 573f cd83 39bf
000002c0: e377 c1be cff4 103e 6685 2cbe d33d 133f
000002d0: 2beb 7e3f 37b5 a9be 918b 04bf 3ca0 b43f
000002e0: f9f1 9dbe 71e9 69bd 1877 953f 3cec d33e
000002f0: c733 673e 6181 2fbf 035d 34bf 1252 55be
00000300: 742e eabf 7f1d 033f 00e6 38be 2b02 6b3f
00000310: 2541 233e e5cc 9fbe 98fc 57bf 1e1e 893f
00000320: db07 0540 ee75 40bf 469d 7c3f efed 923d
00000330: fa3d 26bf cecb 72bf deae 1e3f 3c05 7f3f
00000340: f2ab 883f 1cb3 0d3f bee1 673e 6364 b23c
00000350: f7c9 81be 4a46 d4bf 5d63 10bf d96d 663f
00000360: ecf8 5a3f 4179 80be ae82 c33d 8d6a d8be
00000370: 414b f83e 301e 22be c9df afbd 3f0d a2bf
00000380: 0345 843d 4912 92be 6549 e8bf d103 03bf
00000390: d3f6 c23e 13e8 243f 01f3 56bf b51d acbe
000003a0: 729b 953f 0244 63bf a90c cdbf e057 84bf
000003b0: 79a9 823f f047 853e 5836 0cc0 0dd6 26bc
000003c0: 3ae0 af3f 901d f6bf 24fd 5ebf 4f52 04c0
000003d0: 31e9 bc3f 17a9 0b3f afdc b9be 3a5d b03f
000003e0: 7fbc dc3f 2fdf a0bf 5afc 953f d3b2 9dbf
000003f0: 8717 113e 61c3 633f 8c3c 133f 787e 863f

z_out f4 [5, 64]
-1.2251362 -0.80908513 0.6802733 1.5656227 -0.25380415 0.20006935 1.5462425 1.3313012
-0.61015546 -1.3150198 0.91082907 0.19315533 -2.0300426 -0.83980745 -0.62180763 -1.3689717
-0.07210704 0.17043063 0.6018105 -1.2131269 -1.5386221 -0.72997624 0.58025616 -0.35300934
0.51732 -1.1574855 -0.082156725 -0.6801363 0.38273108 -0.46741787 0.62290156 0.21876071
0.5838484 0.35892174 -0.5941014 1.1894128 1.3096584 0.38747478 -0.74102056 -0.47586623
-1.0924001 1.9602921 -0.8243634 -0.63010955 -0.17174706 -0.61216515 -1.2407923 -0.19384645
-0.16165625 -0.8613331 -0.08835582 -0.4786075 -0.14063488 0.3307667 -0.61590195 1.3290023
0.565204 0.69095165 0.71034926 -0.2612301 0.2642805 -0.99447125 -0.2848704 -0.48915544
1.6094226 -0.58403516 -1.9852427 -0.22374633 0.96317065 0.18513042 1.0087517 -0.46090376
0.47437623 -1.6658137 0.059270285 0.33539408 -1.2089318 -1.2876868 0.41227135 -0.73634046
0.2660966 -1.4073623 -0.5518517 -0.75212467 0.8743623 -0.75406206 -1.2890517 -0.75815415
0.06932453 -0.19117996 1.185262 -0.38538527 0.2865233 0.6016685 1.2784685 1.7302843
-0.76346284 1.8916411 0.5921008 -0.0323828 -0.07814664 1.1347481 1.3535283 -2.0378654
-0.65549105 -1.7247187 0.13529575 0.48709372 1.3040835 -0.4545366 0.51049554 -1.426165
0.40278068 -1.4746898 0.40558535 -2.1012807 1.1842601 0.7040358 -1.0341094 -0.64164126
-1.0023829 1.583922 -0.48097152 -0.59488094 -0.5133055 0.29907063 -0.411198 -0.7678822
0.89193034 -0.858784 1.2354813 -0.20524354 0.4819115 -1.6017598 0.3807289 -0.04566375
-0.6692359 0.5529593 1.3552934 -0.5018509 0.21940288 -2.3738976 0.8229089 -0.2110387
0.31103778 0.2638912 0.27480915 0.52153873 0.7585989 -0.063543305 0.020607125 0.3824899
1.4433051 -1.6078737 -0.68503916 -0.209056 -0.43711355 -0.16485828 -0.61606336 -1.1552892
0.11376471 -0.39274696 -0.9893294 -0.8446749 -0.58636934 -0.47387457 1.6076247 0.83514684
1.7078935 3.2962239 1.9894241 -0.4159601 0.43189687 2.1693523 0.21017207 0.056668587
-0.9667355 -0.95333415 0.06908237 -0.553447 0.32778034 -0.5670603 -0.6133397 -0.79582363
-0.7760262 1.1671193 -1.401002 -0.73509854 -1.4296587 -0.35557285 2.9593034 -0.88753235
0.56335145 0.69059944 0.63816893 0.1496334 -0.33438855 -2.374432 -1.7195946 -0.44566107
1.1096084 -0.9114461 0.122389846 -0.5048426 -0.6082713 -0.43999162 1.073252 0.46847475
0.51948476 0.83840275 1.3257725 -1.6575173 0.6330208 -0.318931 2.1012285 -1.7700994
0.41803065 -1.0492568 -0.6166136 1.3736112 1.1364875 0.039970864 -1.5770081 0.85435385
0.076056406 -1.7194166 0.5316323 -0.080047525 0.81010604 1.5096946 1.5113509 0.40078112
1.0425352 0.77525 -0.21103287 0.2438404 0.23565707 -0.2607313 0.7095577 0.006536871
-1.7251003 1.3072546 -1.3818622 -0.74231625 0.711581 1.9001509 0.4955544 -1.5039676
-1.1068282 1.6083711 0.8510754 0.94542664 -0.44704187 1.5860721 -1.2409295 -0.10192894
00000000: 43d1 9cbf 3420 4fbf 6426 2e3f 5366 c83f
00000010: 9ef2 81be fbde 4c3e 46eb c53f 1468 aa3f
00000020: 2633 1cbf 9252 a8bf 182c 693f 83ca 453e
00000030: 38ec 01c0 9ffd 56bf c92e 1fbf 773a afbf
00000040: dbac 93bd 5e85 2e3e 4110 1a3f be47 9bbf
00000050: 92f1 c4bf b9df 3abf ab8b 143f a4bd b4be
00000060: 156f 043f 7c28 94bf c941 a8bd 6a1d 2ebf
00000070: 54f5 c33e 6551 efbe 7a76 1f3f cf02 603e
00000080: 1777 153f 97c4 b73e 0817 18bf ae3e 983f
00000090: e3a2 a73f 1863 c63e 86b3 3dbf bda4 f3be
000000a0: c4d3 8bbf daea fa3f 7b09 53bf dc4e 21bf
000000b0: 76de 2fbe dbb6 1cbf 48d2 9ebf af7f 46be
000000c0: 3789 25be 5380 5cbf e5f3 b4bd 0b0c f5be
000000d0: 9702 10be 415a a93e c0ab 1dbf bf1c aa3f
000000e0: 36b1 103f 35e2 303f 73d9 353f f4bf 85be
000000f0: c64f 873e ab95 7ebf 88da 91be 9572 fabe
00000100: 8f01 ce3f 5483 15bf 6f1c febf c21d 65be
00000110: 5a92 763f d492 3d3e c71e 813f 94fb ebbe
00000120: 71e1 f23e 6239 d5bf 66c5 723d c6b8 ab3e
00000130: 47be 9abf ecd2 a4bf 3b15 d33e cf80 3cbf
00000140: d03d 883e 7324 b4bf 2746 0dbf 3e8b 40bf
00000150: 35d6 5f3f 360a 41bf a5ff a4bf 6416 42bf
00000160: 05fa 8d3d aec4 43be aab6 973f 3851 c5be
00000170: 2fb3 923e f206 1a3f dba4 a33f f579 dd3f
00000180: 4d72 43bf 4c21 f23f eb93 173f d4a3 04bd
00000190: 580b a0bd 6d3f 913f 6a40 ad3f 636c 02c0
000001a0: 43ce 27bf 95c3 dcbf f88a 0a3e 5964 f93e
000001b0: 35ec a63f 05b9 e8be d6af 023f 938c b6bf
000001c0: 4539 ce3e a3c2 bcbf e2a8 cf3e 627b 06c0
000001d0: d695 973f b13b 343f b25d 84bf 9a42 24bf
000001e0: 154e 80bf f5bd ca3f e641 f6be 1e4a 18bf
000001f0: fd67 03bf c91f 993e 8b88 d2be ee93 44bf
00000200: 8c55 643f 45d9 5bbf 4024 9e3f 5d2b 52be
00000210: 1bbd f63e 7706 cdbf e6ee c23e ea09 3bbd
00000220: 0b53 2bbf be8e 0d3f 417a ad3f 4d79 00bf
00000230: 26ab 603e f0ed 17c0 28aa 523f 871a 58be
00000240: 5840 9f3e bf1c 873e c9b3 8c3e 9083 053f
00000250: 8a33 423f fe22 82bd 46d0 a83c b7d5 c33e
00000260: 39be b83f cece cdbf ba5e 2fbf c712 56be
00000270: 59cd dfbe 9cd0 28be 54b6 1dbf 84e0 93bf
00000280: 79fd e83d 2116 c9be b144 7dbf 9d3c 58bf
00000290: 4d1c 16bf b09f f2be a5c6 cd3f 2fcc 553f
000002a0: 419c da3f 55f5 5240 73a5 fe3f b9f8 d4be
000002b0: 9621 dd3e abd6 0a40 5937 573e 521d 683d
000002c0: fa7b 77bf b50d 74bf 0f7b 8d3d b4ae 0dbf
000002d0: d3d2 a73e dd2a 11bf d503 1dbf 19bb 4bbf
000002e0: a7a9 46bf 2a64 953f 0954 b3bf 6b2f 3cbf
000002f0: 0eff b6bf a50d b6be 3a65 3d40 5235 63bf
00000300: cd37 103f 20cb 303f 0a5f 233f 7f39 193e
00000310: fa34 abbe b2f6 17c0 ad1b dcbf b02d e4be
00000320: a607 8e3f 8854 69bf 87a7 fa3d 5d3d 01bf
00000330: abb7 1bbf 9546 e1be 5260 893f ecdb ef3e
00000340: f4fc 043f 90a1 563f eab2 a93f 8729 d4bf
00000350: a70d 223f ed4a a3be 877a 0640 9e92 e2bf
00000360: 1d08 d63e 0c4e 86bf 64da 1dbf 7ed2 af3f
00000370: 6c78 913f 7db8 233d 67db c9bf efb6 5a3f
00000380: 76c3 9b3d d815 dcbf 0e19 083f f5ef a3bd
00000390: 1c63 4f3f ac3d c13f f273 c13f 2f33 cd3e
000003a0: cb71 853f c976 463f 0019 58be 4cb1 793e
000003b0: 1650 713e 937e 85be 93a5 353f 4033 d63b
000003c0: 16d0 dcbf 1e54 a73f dce0 b0bf 7008 3ebf
000003d0: 2c2a 363f 2538 f33f 4eb9 fd3e 0382 c0bf
000003e0: 8cac 8dbf 1bdf cd3f 14e0 593f 7b07 723f
000003f0: ace2 e4be 6904 cb3f c7d6 9ebf 1fc0 d0bd

b f4 [5]
-0.27040413 -1.5781633 0.7638995 1.9680637 -0.26590225
00000000: 6972 8abe 4101 cabf eb8e 433f 83e9 fb3f
00000010: 5724 88be

edge_vector f4 [5, 64]
-0.39017853 -1.1204457 -1.6141644 0.036713757 -0.22983022 -0.9064937 1.1730602 -0.36020452
-0.9744478 0.17964569 0.54000026 0.4741839 0.84520924 0.21584915 1.9372935 -0.45593017
0.063533895 -0.06439388 -0.12316631 0.30297652 -1.1809193 2.1187773 0.12660582 -0.3755814
1.4656239 0.3623909 -0.41641492 1.4670814 1.5610973 0.6184935 0.43429282 0.7752778
-1.0956105 -0.35341525 -0.50494975 0.7889117 0.09565786 0.24162242 0.8126782 -3.051064
1.4537832 0.14788851 -2.1842802 0.65953165 0.24003974 0.29134277 0.24919748 -0.13068065
-0.36876068 0.63872755 -0.8251627 -0.17380105 0.45760992 -0.037611704 0.2590968 0.31466922
0.8828191 -0.97389495 0.46001586 0.03512507 -0.03633565 -0.28162786 0.3417517 1.0835792
1.2569779 -2.2809856 -0.18380621 -0.5591698 1.0960897 1.0386118 -0.18972218 0.023976374
0.6959611 0.5433851 -0.7840094 0.4594953 0.32035863 0.04935021 0.7164394 -0.018635914
0.35490927 -0.29723293 -0.87043256 1.0080678 -1.3026321 -0.70012957 -0.2557251 0.13512447
-0.45759517 -0.21177432 -1.0501842 -1.049089 -0.45038804 -0.08965329 0.76248497 -0.36478102
0.7084638 0.41485602 -0.564673 -0.2326329 -0.20767675 -1.2280271 -0.14672092 0.0151600065
-0.5269175 0.46192765 0.6332175 -0.6344065 -1.6139334 1.0219396 -0.5253443 -0.6791124
-0.168606 -2.0350125 -0.20560095 1.8800008 0.054102734 1.42717 -0.6277402 -1.6380707
-0.078103155 0.77030045 1.5996841 0.71420926 0.86599284 -1.6213458 -0.3130887 -1.0494956
0.28425306 -0.57589257 0.53141767 0.4233848 -0.13572486 -0.16523719 -0.8131517 -0.2644386
-0.20515579 -0.5180942 0.73063964 1.3532784 0.8241596 1.7432727 0.5868005 -1.1717873
-1.2777835 1.1225504 0.4198091 -0.327809 0.86780995 0.98730403 0.19626936 0.14495872
-0.5070699 -0.1623825 -1.5129834 0.9051328 -0.75091267 1.8654325 1.4171139 -0.12138974
0.29926494 1.0709713 -0.32369524 -0.4107125 -1.0405316 -0.16229951 -0.89571065 0.71404094
1.0483576 -2.412811 -0.03861981 -0.993752 0.5774967 0.86247694 1.0017549 -0.102433294
-0.940411 -0.06472194 -1.7860919 -0.8040105 -1.2307488 0.81758165 0.017933194 -0.5934339
-0.14295587 0.4582693 -0.15159103 0.63830906 0.7494756 -0.24851844 -0.8244827 -1.1139867
-0.41271183 -0.7091702 -0.85013413 -0.13411896 -0.4264102 1.0846018 -1.1701288 -0.7988202
1.2380272 0.69045997 1.2088332 -0.9084529 0.8923205 1.0828332 -0.0007513321 0.07768957
-1.4072447 -1.0487931 0.43704432 -0.1104314 0.905489 -0.4059929 -1.5771852 0.07858051
-0.3337602 0.31505802 0.4234458 2.9021573 -0.696829 0.19324091 -2.0717547 0.06460292
0.40953442 -1.0841855 0.03235742 1.8017769 -1.7547938 -0.75046414 0.80744326 -0.07762475
-1.907392 0.7848215 1.3735845 -1.4176115 0.25821564 -1.5200365 0.47771606 -0.57497203
-0.8873283 -0.9356922 0.21627444 0.4635565 0.72999734 -1.9327086 -0.57622033 -0.9490576
-1.1478789 -0.21763064 1.1622685 -0.9349213 -0.6017302 -0.24941374 0.69521976 0.17555
00000000: 7bc5 c7be c46a 8fbf f09c cebf 2a61 163d
00000010: 9d58 6bbe f90f 68bf d626 963f ba6c b8be
00000020: 6975 79bf 0af5 373e 753d 0a3f 3bc8 f23e
00000030: a25f 583f 8f07 5d3e 3cf9 f73f ae6f e9be
00000040: 0f1e 823d f0e0 83bd 9e3e fcbd bd1f 9b3e
00000050: 5d28 97bf 0c9a 0740 f5a4 013e 354c c0be
00000060: 9099 bb3f 4d8b b93e 5634 d5be 53c9 bb3f
00000070: 09d2 c73f 9755 1e3f a15b de3e 9b78 463f
00000080: f73c 8cbf d8f2 b4be 6344 01bf 1ef6 493f
00000090: 45e8 c33d de6b 773e ae0b 503f a244 43c0
000000a0: 9115 ba3f 1670 173e 3fcb 0bc0 11d7 283f
000000b0: facc 753e e12a 953e a02d 7f3e 26d1 05be
000000c0: 33ce bcbe a683 233f dd3d 53bf e7f8 31be
000000d0: d94b ea3e bb0e 1abd 56a8 843e 531c a13e
000000e0: 6f00 623f 2e51 79bf 3387 eb3e 4edf 0f3d
000000f0: b1d4 14bd 8731 90be 14fa ae3e b9b2 8a3f
00000100: a7e4 a03f abfb 11c0 b237 3cbe c125 0fbf
00000110: ab4c 8c3f 3bf1 843f 8846 42be 1a6a c43c
00000120: 822a 323f 491b 0b3f d7b4 48bf f842 eb3e
00000130: 0c06 a43e 7223 4a3d 9368 373f 58aa 98bc
00000140: abb6 b53e ea2e 98be abd4 5ebf 5e08 813f
00000150: a6bc a6bf b13b 33bf 66ee 82be 125e 0a3e
00000160: ea49 eabe 5edb 58be 706c 86bf 8c48 86bf
00000170: 4399 e6be 259c b7bd 3732 433f 94c4 babe
00000180: e25d 353f 0268 d43e 698e 10bf 5237 6ebe
00000190: 37a9 54be fe2f 9dbf 023e 16be ad61 783c
000001a0: 11e4 06bf c881 ec3e 8b1a 223f 7768 22bf
000001b0: 5f95 cebf ebce 823f f77c 06bf 4fda 2dbf
000001c0: 0da7 2cbe a53d 02c0 0e89 52be dea3 f03f
000001d0: d49a 5d3d 82ad b63f 95b3 20bf 4dac d1bf
000001e0: 8cf4 9fbd 6932 453f 73c2 cc3f 6bd6 363f
000001f0: b5b1 5d3f 4288 cfbf 294d a0be df55 86bf
00000200: 9e89 913e b26d 13bf fd0a 083f e4c5 d83e
00000210: 75fb 0abe f033 29be b62a 50bf 7f64 87be
00000220: 5c14 52be d2a1 04bf 330b 3b3f 3a38 ad3f
00000230: 20fc 523f 8f23 df3f 8f38 163f 20fd 95bf
00000240: 698e a3bf bbaf 8f3f 38f1 d63e 95d6 a7be
00000250: cb28 5e3f f5bf 7c3f d6fa 483e 0f70 143e
00000260: 55cf 01bf 9947 26be 71a9 c1bf c8b6 673f
00000270: d03b 40bf 7ec6 ee3f fd63 b53f 2f9b f8bd
00000280: 4139 993e 9615 893f 62bb a5be e948 d2be
00000290: 2430 85bf d831 26be 4b4d 65bf 63cb 363f
000002a0: 9530 863f 7f6b 1ac0 ce2f 1ebd 8866 7ebf
000002b0: d3d6 133f 4acb 5c3f 8139 803f 8cc8 d1bd
000002c0: c6be 70bf f08c 84bd a99e e4bf a2d3 4dbf
000002d0: 2d89 9dbf 084d 513f a2e8 923c 49eb 17bf
000002e0: 0663 12be 46a2 ea3e ae3a 1bbe 3968 233f
000002f0: a2dd 3f3f 9e7b 7ebe 4c11 53bf 1e97 8ebf
00000300: f74e d3be 2e8c 35bf 64a2 59bf 7b56 09be
00000310: 7052 dabe 3bd4 8a3f c8c6 95bf 7b7f 4cbf
00000320: ad77 9e3f fcc1 303f 0cbb 9a3f 5f90 68bf
00000330: 1e6f 643f 479a 8a3f 0bf5 44ba b61b 9f3d
00000340: 9820 b4bf da3e 86bf 46c4 df3e dc29 e2bd
00000350: 21ce 673f 4dde cfbe 34e1 c9bf d2ee a03d
00000360: 9ee2 aabe 494f a13e e3cd d83e f2bc 3940
00000370: 6363 32bf f2e0 453e a197 04c0 894e 843d
00000380: 7fae d13e 97c6 8abf 3789 043d a0a0 e63f
00000390: 159d e0bf 6b1e 40bf 9ab4 4e3f baf9 9ebd
000003a0: 6c25 f4bf 10ea 483f 9ed1 af3f 4b74 b5bf
000003b0: d734 843e 8e90 c2bf 3397 f43e 5e31 13bf
000003c0: f327 63bf 8689 6fbf 0c77 5d3e 4757 ed3e
000003d0: 1be1 3a3f ff62 f7bf 2d83 13bf 70f5 72bf
000003e0: b2ed 92bf 91da 5ebe 37c5 943f 0157 6fbf
000003f0: fe0a 1abf 5166 7fbe ecf9 313f 61c3 333e

weight f4 [64, 64]
-0.043091755 0.009448953 0.0633439 -0.1038772 0.055641208 -0.076237604 -0.07942369 -0.09799289
0.06278564 0.045722682 -0.08006438 -0.06921274 -0.049890168 0.103341796 -0.021422049 0.07673941
0.035105858 -0.0837164 -0.07742753 -0.013953885 0.012466703 -0.018042391 -0.08613838 0.056462266
0.098820634 0.0809776 0.06990417 -0.025283342 0.04181286 0.09213494 -0.0064171324 -0.09126129
0.06883015 0.06950136 -0.05885893 -0.07702375 -0.106592044 -0.0989471 0.059262726 -0.0968707
-0.11286621 0.062964365 -0.054350916 -0.10723404 -0.115626395 -0.018508054 0.09712533 -0.10065066
-0.10685382 0.016090939 0.009191493 -0.11005276 0.031138586 -0.021434741 0.060431913 -0.0056242067
0.04410966 0.0036063152 -0.058236994 0.040743943 0.024997178 0.09106045 -0.09485198 -0.10251743
0.10993932 -0.002326245 -0.051747717 0.084571674 -0.05495209 -0.09103325 0.00048542314 0.103593335
-0.079232454 -0.061356477 -0.05072966 -0.038835034 -0.0003273626 -0.05673645 0.057588384 0.05268283
0.00486995 0.045802645 0.05331175 0.06079177 0.124521546 0.119783595 -0.06970631 0.073047735
-0.009159698 -0.030802855 -0.06303787 -0.083573595 0.044526808 0.02329836 0.10801324 0.11305605
0.09763821 -0.07975323 0.12064127 0.11363487 -0.110197455 0.044821896 -0.0062158494 0.040460017
0.09598133 0.06750039 0.053472552 -0.11173851 0.092942275 -0.07210575 -0.023733944 0.11567835
-0.038769428 0.06866808 0.07613729 -0.12571746 0.08632176 -0.12362591 -0.07776653 -0.039668035
0.08983702 0.005087933 -0.119133264 0.0062932926 0.06944897 -0.06772825 0.030856421 0.10373934
-0.05204202 0.040212225 0.068368904 0.06185558 0.0586958 0.06619343 -0.09723494 -0.09005116
-0.084993444 0.12071942 0.111089356 -0.0015586995 0.07877264 0.03996127 -0.030554099 -0.08437589
0.0887324 0.029656632 -0.07719185 -0.101176515 0.10382523 0.012396036 0.06803484 -0.119390905
-0.01909629 -0.08757295 -0.031985555 -0.04487643 -0.12224696 0.11969938 -0.1187882 0.011280153
0.123294294 0.052484732 -0.091006555 0.07560477 0.035993785 0.07579743 0.1087083 -0.10262412
0.012725837 0.023304576 -0.11343926 -0.078910545 0.0308441 0.05278978 0.044421963 0.046520103
-0.10614785 0.014521539 -0.08852999 0.052445333 0.112546735 0.07218868 -0.0116174575 -0.017558575
-0.053459484 0.095225744 0.1050546 -0.048176993 -0.09860475 0.065762535 0.018949464 0.08796737
0.025915071 0.012833557 -0.11609119 -0.0087183295 -0.059462737 -0.05677377 0.052255463 -0.074371494
0.019131746 -0.08674344 -0.028207019 -0.08121027 0.06252809 0.023889031 0.029446565 0.04513122
0.093139365 0.06750006 0.050805964 0.005031978 0.07834406 0.06925798 -0.048365433 -0.07265832
-0.030056916 0.013057356 -0.0036341883 -0.10102826 -0.09219578 0.010503024 0.09957682 -0.05409015
0.08466178 -0.032101408 0.031202437 0.077687524 0.0776742 0.064341284 0.028941296 0.10673886
0.08481984 0.058836434 0.110715695 0.108591706 -0.008012719 -0.025761278 0.08686989 -0.007003774
-0.095692635 0.09911097 0.07798963 0.083851315 0.07412265 0.08851683 -0.07624549 -0.07435738
0.056988075 0.10601867 -0.10485837 -0.096022695 -0.06637227 -0.081079535 0.1051263 0.02360448
00000000: fb80 30bd c8cf 1a3c 72ba 813d 92bd d4bd
00000010: 09e8 633d 7622 9cbd e3a8 a2bd 7fb0 c8bd
00000020: c295 803d b547 3b3d cbf8 a3bd 69bf 8dbd
00000030: a259 4cbd dda4 d33d 4b7d afbc 8d29 9d3d
00000040: 29cb 0f3d 8173 abbd 5392 9ebd d69e 64bc
00000050: 2441 4c3c a3cd 93bc 5269 b0bd fa44 673d
00000060: 7962 ca3d 95d7 a53d eb29 8f3d 031f cfbc
00000070: f643 2b3d 3eb1 bc3d cf46 d2bb 33e7 babd
00000080: d2f6 8c3d bb56 8e3d 1016 71bd a1be 9dbd
00000090: ee4c dabd c7a4 cabd 79bd 723d 2564 c6bd
000000a0: 6626 e7bd 76f3 803d 119f 5ebd 859d dbbd
000000b0: 88cd ecbd 349e 97bc a5e9 c63d ef21 cebd
000000c0: 2dd6 dabd 25d1 833c ea97 163c 5763 e1bd
000000d0: 5916 ff3c e997 afbc 7487 773d 444b b8bb
000000e0: 55ac 343d ee57 6c3b ea89 6ebd 1fe3 263d
000000f0: e2c6 cc3c e77d ba3d c141 c2bd a9f4 d1bd
00000100: de27 e13d ea73 18bb 6af5 53bd ea33 ad3d
00000110: 7115 61bd a46f babd 6480 fe39 be28 d43d
00000120: a044 a2bd ee50 7bbd e7c9 4fbd 7c11 1fbd
00000130: dda1 abb9 7b64 68bd cce1 6b3d f3c9 573d
00000140: 1a94 9f3b 8e9b 3b3d 6c5d 5a3d cb00 793d
00000150: 2705 ff3d 1a51 f53d 2fc2 8ebd 0d9a 953d
00000160: 8f12 16bc 4556 fcbc 001a 81bd a228 abbd
00000170: be61 363d 34dc be3c 0c36 dd3d ee89 e73d
00000180: 8bf6 c73d a955 a3bd c512 f73d 66b9 e83d
00000190: 34af e1bd 2a97 373d 53ae cbbb 67b9 253d
000001a0: dc91 c43d a53d 8a3d 0906 5b3d 29d7 e4bd
000001b0: 8558 be3d 2eac 93bd b06d c2bc c5e8 ec3d
000001c0: b1cc 1ebd daa1 8c3d deed 9b3d 14bc 00be
000001d0: 77c9 b03d 952f fdbd 0f44 9fbd f37a 22bd
000001e0: 79fc b73d adb8 a63b 24fc f3bd f737 ce3b
000001f0: 433b 8e3d 1cb5 8abd 9bc6 fc3c 4b75 d43d
00000200: 032a 55bd 93b5 243d ff04 8c3d 475c 7d3d
00000210: 026b 703d 6c90 873d 1d23 c7bd be6c b8bd
00000220: 0b11 aebd be3b f73d d182 e33d 474d ccba
00000230: 8d53 a13d 6eae 233d 974c fabc 44cd acbd
00000240: 55b9 b53d 77f2 f23c c316 9ebd a235 cfbd
00000250: 52a2 d43d be18 4b3c da55 8b3d 3883 f4bd
00000260: d36f 9cbc 7259 b3bd 4903 03bd 59d0 37bd
00000270: 9d5c fabd f324 f53d 3a47 f3bd 64d0 383c
00000280: b881 fc3d 3bfa 563d a561 babd acd6 9a3d
00000290: 386e 133d af3b 9b3d 75a2 de3d 982c d2bd
000002a0: 0780 503c 3de9 be3c d852 e8bd da9b a1bd
000002b0: c4ac fc3c 193a 583d cef3 353d dd8b 3e3d
000002c0: 0b64 d9bd c0eb 6d3c 364f b5bd ebd0 563d
000002d0: e77e e63d a9d7 933d 2657 3ebc 00d7 8fbc
000002e0: 55f8 5abd b705 c33d de26 d73d 3d55 45bd
000002f0: 4af1 c9bd 82ae 863d e83b 9b3c 3d28 b43d
00000300: d84b d43c d743 523c 38c1 edbd 53d7 0ebc
00000310: 338f 73bd 9d8b 68bd d309 563d 1550 98bd
00000320: 2eba 9c3c 8ba6 b1bd 6812 e7bc 9251 a6bd
00000330: ba0e 803d eeb2 c33c ec39 f13c 84db 383d
00000340: dabf be3d 793d 8a3d ea19 503d 4ae3 a43b
00000350: da72 a03d 21d7 8d3d d51a 46bd e3cd 94bd
00000360: ec39 f6bc 85ee 553c 902b 6ebb e8e7 cebd
00000370: 24d1 bcbd e014 2c3c efee cb3d a28d 5dbd
00000380: 2863 ad3d c47c 03bd 419c ff3c a31a 9f3d
00000390: a713 9f3d 5dc5 833d 4c16 ed3c e799 da3d
000003a0: 06b6 ad3d 79fe 703d e9be e23d 5465 de3d
000003b0: c847 03bc 5109 d3bc d7e8 b13d ea7f e5bb
000003c0: 80fa c3bd b1fa ca3d 07b9 9f3d 3dba ab3d
000003d0: 9ecd 973d 5048 b53d 9826 9cbd af48 98bd
000003e0: 546c 693d 5120 d93d fcbf d6bd 8ca7 c4bd
000003f0: 2fee 87bd 070d a6bd 754c d73d 2f5e c13c

bias f4 [64]
0.009893113 -0.035036426 0.072628774 0.10597072 -0.12250704 0.10265165 -0.04019269 0.051477984
-0.040678 0.10703929 0.08225177 0.11833864 0.08338986 0.075813755 0.100083545 0.112874426
0.01939807 0.0033365746 0.058564454 0.041892372 0.016595148 -0.11017912 0.054186013 0.061917298
-0.06811387 -0.07069115 -0.0027269793 -0.09052524 0.01584481 0.11950909 0.056035277 0.123738326
-0.1161771 0.11687099 0.007237084 -0.046546068 -0.011568956 -0.032924343 0.097935975 0.10825356
0.098673016 -0.011390114 0.09552656 0.007022188 0.070225514 0.040606227 0.11938631 0.09626483
0.11850123 0.124261566 -0.054705102 0.0008488846 -0.09336857 -0.07309511 0.01683714 0.11846004
-0.03140566 0.10604569 -0.041049786 -0.04124902 0.099726446 0.012902357 0.072704405 -0.08114513
00000000: b916 223c 5b82 0fbd 65be 943d 2d07 d93d
00000010: f9e4 fabd 073b d23d 17a1 24bd 94da 523d
00000020: f99d 26bd 6a37 db3d 9e73 a83d 875b f23d
00000030: 4ec8 aa3d 3e44 9b3d 9af8 cc3d b52a e73d
00000040: b4e8 9e3c 6faa 5a3b 48e1 6f3d 5697 2b3d
00000050: 8cf2 873c 97a5 e1bd 27f2 5d3d fe9c 7d3d
00000060: 497f 8bbd 86c6 90bd 1fb7 32bb 4c65 b9bd
00000070: facc 813c 2fc1 f43d 3f85 653d 856a fd3d
00000080: 42ee edbd 0f5a ef3d 1025 ed3b 17a7 3ebd
00000090: b88b 3dbc addb 06bd a892 c83d 0bb4 dd3d
000000a0: 1415 ca3d 9a9d 3abc 6ea3 c33d 621a e63b
000000b0: 65d2 8f3d b752 263d cf80 f43d 7f26 c53d
000000c0: c6b0 f23d d97c fe3d 7512 60bd ae87 5e3a
000000d0: 0538 bfbd e4b2 95bd 0bee 893c 2d9b f23d
000000e0: 39a3 00bd 7c2e d93d d223 28bd bbf4 28bd
000000f0: 613d cc3d 6864 533c 0ce6 943d 6b2f a6bd

weight f4 [64, 64]
-0.06407347 -0.061752144 0.05066263 -0.03321722 0.10505028 -0.08152713 -0.12591805 0.071477175
-0.011744474 -0.008602909 0.027197454 0.037597805 0.060437046 -0.027291458 0.042692237 -0.052329812
-0.11142813 -0.09730228 0.11473387 -0.07888247 -0.047658138 -0.010449454 -0.026864547 0.039628956
0.023890749 0.05430602 0.042976215 -0.032527357 0.05490891 0.05921207 0.11482287 -0.018673975
0.118920185 0.026681622 -0.075568266 0.038401894 0.011485364 -0.053147953 -0.021644184 0.0053046322
0.020446204 0.051571943 0.004992947 0.020053482 -0.07575362 0.006269129 -0.056829594 -0.106988534
-0.11695911 -0.07463805 -0.07813214 -0.06622494 -0.041212853 -0.028934771 -0.07118873 -0.073441714
0.054736342 -0.084205054 -0.05584486 0.004855533 -0.054996293 0.0060174256 -0.03499224 -0.012598678
-0.06507185 0.029245256 -0.1109136 0.043537952 0.03150539 0.08134077 0.107591204 0.10546637
-0.11878056 -0.0964949 0.015443487 -0.06608225 0.06768919 0.06665779 -0.094279625 0.007764547
0.106730424 0.01811456 0.10895478 0.04014304 -0.06583201 -0.0804464 -0.018999493 0.056675952
0.1035991 0.044386048 -0.013733927 0.05499917 -0.118981786 -0.11728539 0.11674418 0.06373796
0.06205781 0.09854873 -0.012581003 -0.0751545 -0.07163225 -0.05862234 0.07503494 0.08301309
-0.06623925 0.067789115 0.12069076 0.10472281 -0.12140899 -0.012427036 -0.120077804 0.012349556
0.054044377 0.03860081 -0.011940585 0.107373 0.057725336 0.11297875 -0.021469388 -0.06493716
-0.067470305 -0.052852593 -0.03777637 -0.05276572 0.02172437 0.040628396 -0.029915944 -0.025158858
-0.020489328 0.004559718 0.027116956 0.078625746 -0.0575818 0.109205775 0.084408864 -0.018553616
0.097367756 0.06538254 0.00581068 0.034982823 0.083728895 -0.054478135 0.014138994 0.024293127
-0.035331953 -0.028831279 -0.09532688 -0.106020026 -0.11916759 0.027390417 -0.0037445093 -0.09107232
0.07977373 -0.018691594 0.099482544 -0.06824241 -0.010107548 0.069808744 -0.005638246 0.07303058
-0.08143291 -0.06864943 -0.023474252 -0.07236993 0.08839766 0.09553615 -0.11057419 -0.017270837
0.091604725 -0.00966415 0.037198495 -0.0015956193 -0.049376305 -0.014699202 -0.054167278 -0.12391335
0.013852199 -0.08487728 0.0001395143 -0.037944682 -0.06428305 0.06369756 0.09078523 0.08813113
-0.065919876 0.07256425 0.026943991 0.077627055 0.02783386 -0.12507333 -0.039282046 0.07364318
0.011984271 -0.108713344 0.10014139 -0.12027614 -0.06980731 0.07777066 0.010467359 0.07095502
-0.08371799 -0.022393616 0.11890632 0.060997806 0.055821262 -0.056130093 0.03119734 -0.056802507
-0.10511228 -0.0491907 0.044605646 0.03291734 0.06748284 0.019173257 -0.114218175 -0.10125615
0.09140915 -0.03726343 -0.117358446 0.09932052 -0.12735546 0.108523816 0.057533618 0.031695206
0.04572176 -0.09907289 -0.029801646 0.11857667 0.055141144 0.0059345695 -0.03860293 -0.03175096
0.074784145 0.074663304 -0.09660669 -0.018634997 0.05723951 -0.043715995 -0.036456652 -0.021824
0.11897867 0.048393477 -0.06367689 -0.0071742493 0.02022368 -0.018875381 0.049690362 0.013199106
0.06218263 -0.034396127 -0.076407194 0.08415524 0.09019203 -0.10525066 0.107894085 0.009861936
00000000: f438 83bd d1ef 7cbd 9e83 4f3d c80e 08bd
00000010: 9a24 d73d b2f7 a6bd a9f0 00be a062 923d
00000020: e56b 40bc 37f3 0cbc 32cd de3c 2800 1a3d
00000030: d68c 773d 5692 dfbc 0ede 2e3d c957 56bd
00000040: 6e34 e4bd 6b46 c7bd 97f9 ea3d 228d a1bd
00000050: 2e35 43bd 3034 2bbc 0a13 dcbc f951 223d
00000060: 88b6 c33c fd6f 5e3d d407 303d 683b 05bd
00000070: 2ae8 603d 5b88 723d 4128 eb3d 2afa 98bc
00000080: 6d8c f33d 6b93 da3c 89c3 9abd 4e4b 1d3d
00000090: 1c2d 3c3c abb1 59bd 254f b1bc 7bd2 ad3b
000000a0: cc7e a73c 1a3d 533d e09b a33b 3347 a43c
000000b0: b724 9bbd 446d cd3b 26c6 68bd ce1c dbbd
000000c0: 4288 efbd d5db 98bd be03 a0bd f1a0 87bd
000000d0: cfce 28bd 9d08 edbc 66cb 91bd 9c68 96bd
000000e0: 3733 603d b373 acbd 94bd 64bd 2a1b 9f3b
000000f0: cb43 61bd d32d c53b 0654 0fbd af6a 4ebc
00000100: 6444 85bd bf93 ef3c ab26 e3bd da54 323d
00000110: cc0b 013d fd95 a63d c758 dc3d c1fe d73d
00000120: 3943 f3bd 1e9f c5bd ae06 7d3c 2156 87bd
00000130: a1a0 8a3d e183 883d ad15 c1bd be6d fe3b
00000140: 7b95 da3d fc64 943c af23 df3d 076d 243d
00000150: efd2 86bd 15c1 a4bd d3a4 9bbc 0b25 683d
00000160: c42b d43d 25ce 353d 4404 61bc cf46 613d
00000170: b9ac f3bd 5333 f0bd 9317 ef3d 0c89 823d
00000180: 5530 7e3d ebd3 c93d 8d20 4ebc 9aea 99bd
00000190: eeb3 92bd fb1d 70bd ebab 993d c402 aa3d
000001a0: 72a8 87bd 05d5 8a3d b82c f73d ea78 d63d
000001b0: 47a5 f8bd c49a 4bbc 5aeb f5bd cb55 4a3c
000001c0: a35d 5d3d e21b 1e3d 72a2 43bc 60e6 db3d
000001d0: 6771 6c3d 6761 e73d 92e0 afbc c6fd 84bd
000001e0: df2d 8abd f67b 58bd 65bb 1abd de20 58bd
000001f0: 4ef7 b13c f669 263d 4812 f5bc f319 cebc
00000200: 3cd9 a7bc b069 953b 6124 de3c 8906 a13d
00000210: e5da 6bbd 47a7 df3d 8ede ac3d c1fd 97bc
00000220: bf68 c73d 48e7 853d 8467 be3b 264a 0f3d
00000230: 0e7a ab3d 7724 5fbd 3da7 673c 6102 c73c
00000240: 3db8 10bd 932f ecbc bd3a c3bd 0721 d9bd
00000250: 230e f4bd de61 e03c 7166 75bb 2084 babd
00000260: 6960 a33d 1d1f 99bc 81bd cb3d adc2 8bbd
00000270: 219a 25bc e3f7 8e3d 09c1 b8bb 0f91 953d
00000280: 4cc6 a6bd 1398 8cbd 134d c0bc b036 94bd
00000290: d509 b53d 75a8 c33d b974 e2bd 927b 8dbc
000002a0: 429b bb3d 6256 1ebc 735d 183d 1924 d1ba
000002b0: cf3e 4abd ecd4 70bc 82de 5dbd 48c6 fdbd
000002c0: 55f4 623c 24d4 adbd 964a 1239 e26b 1bbd
000002d0: d5a6 83bd de73 823d 9bed b93d 187e b43d
000002e0: 0001 87bd 919c 943d a5b9 dc3c effa 9e3d
000002f0: d603 e43c 3913 00be 36e6 20bd 3cd2 963d
00000300: ad59 443c 1aa5 debd ee16 cd3d 5653 f6bd
00000310: 23f7 8ebd 3946 9f3d 497f 2b3c de50 913d
00000320: 5674 abbd d172 b7bc 2885 f33d d6d8 793d
00000330: d6a4 643d abe8 65bd 9091 ff3c bfa9 68bd
00000340: 1b45 d7bd 307c 49bd 69b4 363d 55d4 063d
00000350: 7134 8a3d 3c11 9d3c 38eb e9bd 625f cfbd
00000360: b834 bb3d 8aa1 18bd a059 f0bd 8f68 cb3d
00000370: 7869 02be bc41 de3d 5fa8 6b3d d5d2 013d
00000380: bd46 3b3d bae6 cabd 9522 f4bc 53d8 f23d
00000390: aedb 613d c776 c23b 1b1e 1ebd 4b0d 02bd
000003a0: 6e28 993d 13e9 983d bad9 c5bd 6ca8 98bc
000003b0: fa73 6a3d 8b0f 33bd 9253 15bd 3fc8 b2bc
000003c0: 17ab f33d 3d38 463d 0869 82bd f715 ebbb
000003d0: 22ac a53c 8ba0 9abc 1f88 4b3d 1041 583c
000003e0: 37b3 7e3d f4e2 0cbd 607b 9cbd 9559 ac3d
000003f0: 99b6 b83d a88d d7bd 93f7 dc3d f593 213c

bias f4 [64]
0.07595639 -0.05106368 -0.076850004 -0.10098849 -0.018208055 0.121038534 0.051001117 0.10054261
-0.046040937 -0.04891592 0.1071565 0.010476913 -0.009231679 -0.096630275 0.0061572054 0.009400738
-0.096346095 -0.099192165 0.04826515 0.0680511 -0.006874069 -0.08541468 0.061737668 0.062478166
-0.037466 0.023670373 0.00011689265 0.015893606 -0.043575007 0.038457274 0.035557143 0.05646016
-0.0200227 -0.12368567 0.048182253 -0.009221294 -0.03257895 0.014825933 -0.07487396 -0.11367457
-0.0044350764 0.050688833 -0.124492705 0.09536524 0.09286194 0.07645009 0.045336746 0.104743265
0.027141828 -0.101030685 0.12105538 -0.042514626 -0.0019988765 -0.11521158 0.10356299 0.029753404
-0.05703717 0.050439272 0.09876687 -0.0027488205 0.11082458 0.06270908 0.03507952 0.06309825
00000000: 068f 9b3d 2628 51bd 8963 9dbd 0ed3 cebd
00000010: 0f29 95bc 0de3 f73d 8ce6 503d 49e9 cd3d
00000020: 6c95 3cbd 0f5c 48bd de74 db3d 5ca7 2b3c
00000030: 7840 17bc 18e6 c5bd 62c2 c93b 8e05 1a3c
00000040: 1a51 c5bd 4325 cbbd aeb1 453d 605e 8b3d
00000050: df3f e1bb e4ed aebd a3e0 7c3d 1be9 7f3d
00000060: f375 19bd 5fe8 c13c 4324 f538 4f33 823c
00000070: b57b 32bd 6085 1d3d 5ea4 113d c542 673d
00000080: a506 a4bc ea4e fdbd c15a 453d e914 17bc
00000090: 8171 05bd 78e8 723c 8557 99bd 37ce e8bd
000000a0: 1e54 91bb 189f 4f3d 08f6 febd da4e c33d
000000b0: 672e be3d dd91 9c3d 06b3 393d a383 d63d
000000c0: 8a58 de3c 2de9 cebd e2eb f73d d123 2ebd
000000d0: 95ff 02bb 0df4 ebbd d518 d43d 69bd f33c
000000e0: cf9f 69bd 6999 4e3d 4946 ca3d 8e25 34bb
000000f0: fff7 e23d 9e6d 803d 8baf 0f3d a839 813d

weight f4 [64, 64]
-0.029837517 -0.025902838 0.0954686 0.06828752 0.044772994 -0.023343097 -0.10395019 -0.102145724
-0.021446712 -0.07380115 -0.011376763 0.016546799 -0.11730296 -0.07633874 -0.0390057 -0.028434835
0.087094754 -0.010156449 -0.054544944 -0.013954405 -0.032774396 0.009288834 0.083648965 -0.1088812
0.0633331 0.06323841 0.11843155 -0.09348146 0.07206471 0.11650255 -0.08174717 0.012915444
0.017341215 -0.03594781 0.011892621 0.08098783 0.019215843 0.034637094 0.086486556 0.024351185
0.056423984 -0.060344413 0.066521764 0.119546816 0.036389336 -0.105896905 0.00954955 0.018732138
-0.034789953 -0.07065991 0.029571926 0.123129025 0.010593102 -0.08124853 -0.032538176 -0.051355023
-0.080466695 -0.09557875 -0.043794703 -0.03096559 0.072312646 -0.06795931 -0.09855266 0.12302981
0.053533413 0.027500013 0.01295944 -0.08226346 0.07798496 -0.09359532 0.054727174 -0.07887658
0.10342949 -0.08975944 0.0010800704 0.10300021 -0.06250929 -0.0901412 0.022954712 -0.023959514
0.078984775 0.03041458 -0.05630529 0.12631193 -0.03912035 -0.07817894 -0.1129496 -0.07602865
-0.07687947 0.027075304 0.07520654 -0.0050764317 0.084412284 -0.049048793 0.025168797 -0.10435357
-0.0022089568 0.061553612 -0.0048133614 -0.010446128 -0.060158912 0.005001493 -0.04154853 0.03293371
-0.00619062 0.017942358 -0.03387823 -0.0967187 -0.10240029 -0.060448784 -0.11094119 0.0038432516
0.12155494 0.0029911497 0.04688667 0.06722611 0.09682943 0.09279116 -0.113110185 -0.11222543
-0.07786018 0.060293492 -0.012855719 0.11219669 -0.11677729 0.041769404 -0.052487243 0.08142251
0.10083873 0.10899494 0.015590227 -0.05140225 -0.095957816 -0.011050829 -0.01723847 -0.020045398
0.11791975 -0.088917725 0.023389246 0.1083009 -0.05796928 -0.102561966 -0.12477832 -0.10314949
-0.07680789 -0.010006294 0.11266938 -0.0061935973 -0.03641924 -0.021441074 0.11986131 0.04858458
0.09234373 -0.06872246 0.0945168 0.027709613 0.043114062 -0.038256377 -0.07588252 -0.06789164
0.11348651 0.018033626 0.058817223 0.07107783 -0.015974473 -0.108104534 0.112989165 -0.04187754
-0.023266211 -0.09695891 0.058771785 0.032252233 -0.100062266 0.0885918 -0.036658984 -0.070477724
0.06019878 -0.12458656 -0.1150068 0.06105336 0.123532444 0.021537682 -0.05079073 -0.008418715
0.05565905 0.052664172 0.064942576 0.0997737 -0.09037231 -0.015566765 -0.016854418 0.055482145
0.012289933 0.10149749 -0.053209677 0.051182225 0.07058928 -0.11222394 -0.0019785056 0.08168143
-0.016350068 -0.083049245 -0.023394188 0.08691821 0.09660111 0.08222218 -0.04415512 -0.10579297
-0.09138393 -0.0738371 0.123279944 -0.08815911 -0.03873739 -0.049351886 -0.06859011 -0.121672645
0.0021947625 -0.06018217 -0.10118326 -0.084986545 0.06039297 -0.07105182 0.009383279 0.08297545
-0.0045526978 -0.021114465 -0.07481152 -0.0359687 0.10520338 -0.012561081 0.10901745 0.030902453
-0.04354039 0.048643224 -0.11866617 0.11039005 0.12274108 -0.0114566395 0.0022675977 -0.105929926
-0.09167468 0.015657732 -0.058097586 -0.014424806 0.07666247 -0.018690478 0.08387706 -0.11606905
-0.06238478 -0.04677986 -0.08824184 0.112464815 -0.0016677498 -0.044084754 0.031502165 -0.010662234
00000000: cf6d f4bc 3032 d4bc 0b85 c33d 54da 8b3d
00000010: e363 373d 063a bfbc d6e3 d4bd c731 d1bd
00000020: 04b1 afbc 0f25 97bd 9a65 3abc 278d 873c
00000030: 893c f0bd 7c57 9cbd 71c4 1fbd 2cf0 e8bc
00000040: bc5e b23d 3c67 26bc 856a 5fbd 04a1 64bc
00000050: 723e 06bd 3230 183c 2650 ab3d 1bfd debd
00000060: c9b4 813d 2483 813d 3e8c f23d 3573 bfbd
00000070: aa96 933d e498 ee3d 0f6b a7bd 4c9b 533c
00000080: 2a0f 8e3c 033e 13bd 45d9 423c f3dc a53d
00000090: 8b6a 9d3c a0df 0d3d dd1f b13d 237c c73c
000000a0: d61c 673d b42b 77bd 903c 883d f6d4 f43d
000000b0: fc0c 153d 7ae0 d8bd b775 1c3c 2474 993c
000000c0: e97f 0ebd 25b6 90bd d340 f23c 122b fc3d
000000d0: b18e 2d3c a165 a6bd c046 05bd a559 52bd
000000e0: b9cb a4bd cbbe c3bd 1362 33bd 8dab fdbc
000000f0: a718 943d 402e 8bbd fad5 c9bd 0ef7 fb3d
00000100: da45 5b3d b547 e13c d553 543c bf79 a8bd
00000110: 94b6 9f3d e7ae bfbd 9a29 603d 0b8a a1bd
00000120: d7d2 d33d ccd3 b7bd 2691 8d3a c6f1 d23d
00000130: df04 80bd f39b b8bd 850b bc3c be46 c4bc
00000140: c5c2 a13d ff27 f93c 60a0 66bd ea57 013e
00000150: a93c 20bd 481c a0bd 1f52 e7bd e9b4 9bbd
00000160: fc72 9dbd 07cd dd3c e305 9a3d 3258 a6bb
00000170: 59e0 ac3d 63e7 48bd cb2e ce3c 53b7 d5bd
00000180: 25c4 10bb a41f 7c3d 67b9 9dbb 3d26 2bbc
00000190: 3169 76bd 90e3 a33b cb2e 2abd 7fe5 063d
000001a0: afda cabb dafb 923c e6c3 0abd 7414 c6bd
000001b0: 3eb7 d1bd 2599 77bd 2235 e3bd 10df 7b3b
000001c0: ccf1 f83d 2a07 443b 3d0c 403d d8ad 893d
000001d0: 824e c63d 4b09 be3d 50a6 e7bd 72d6 e5bd
000001e0: 2875 9fbd 4ff6 763d cba0 52bc 61c7 e53d
000001f0: ef28 efbd 6516 2b3d ddfc 56bd d8c0 a63d
00000200: 8984 ce3d bd38 df3d 276e 7f3c 2a8b 52bd
00000210: 8885 c4bd 890e 35bc b137 8dbc 3f36 a4bc
00000220: e97f f13d 7f1a b6bd ce9a bf3c ddcc dd3d
00000230: 3271 6dbd 020c d2bd c78b ffbd 0a40 d3bd
00000240: 744d 9dbd 70f1 23bc 34bf e63d a9f3 cabb
00000250: 572c 15bd 31a5 afbc d979 f53d a000 473d
00000260: b61e bd3d 5cbe 8cbd 0692 c13d 45ff e23c
00000270: 5f98 303d b8b2 1cbd 4b68 9bbd c60a 8bbd
00000280: 9e6b e83d 41bb 933c 54ea 703d 4191 913d
00000290: e6dc 82bc e965 ddbd dd66 e73d c987 2bbd
000002a0: c898 bebc 6592 c6bd afba 703d eb1a 043d
000002b0: 72ed ccbd 9e6f b53d bb27 16bd a056 90bd
000002c0: ff92 763d 3d27 ffbd af88 ebbd 1713 7a3d
000002d0: 94fe fc3d cb6f b03c f109 50bd a6ee 09bc
000002e0: befa 633d 63b6 573d 9d00 853d 2756 cc3d
000002f0: 1e15 b9bd bf0b 7fbc 4712 8abc 3f41 633d
00000300: b75b 493c ebdd cf3d 64f2 59bd 74a4 513d
00000310: 1d91 903d aad5 e5bd d1a9 01bb 9848 a73d
00000320: 94f0 85bc b915 aabd 2ba5 bfbc 2d02 b23d
00000330: ced6 c53d 1a64 a83d 00dc 34bd fca9 d8bd
00000340: 7f27 bbbd e837 97bd 327a fc3d c38c b4bd
00000350: 19ab 1ebd 3425 4abd f978 8cbd 822f f9bd
00000360: 01d6 0f3b 9481 76bd 2b39 cfbd 6d0d aebd
00000370: 9e5e 773d 9e83 91bd 53bc 193c 08ef a93d
00000380: cc2e 95bb 3ef8 acbc c836 99bd ea53 13bd
00000390: df74 d73d fecc 4dbc 8a44 df3d 2427 fd3c
000003a0: 6857 32bd 1e3e 473d 4007 f3bd 2e14 e23d
000003b0: ad5f fb3d a1b4 3bbc fa9b 143b caf1 d8bd
000003c0: efbf bbbd a544 803c bcf7 6dbd 0656 6cbc
000003d0: 3701 9d3d c61c 99bc bcc7 ab3d 9cb5 edbd
000003e0: 2f87 7fbd 3d9c 3fbd 23b8 b4bd f453 e63d
000003f0: 6698 daba 3792 34bd 6a08 013d a7b0 2ebc

bias f4 [64]
0.106936336 -0.099887155 -0.09139121 0.010945222 -0.12112019 -0.08635328 0.047915407 -0.064775445
0.10603726 0.042892203 -0.013316659 0.00078800385 0.068183966 0.06279056 -0.027004067 -0.023065865
0.09215219 0.03246996 -0.09875617 -0.06676527 0.09572107 0.0076835486 -0.032582685 -0.083375715
0.08993344 0.094637275 -0.06152528 -0.105321564 0.06980297 0.095642775 0.008402658 0.082068205
-0.11746253 -0.110581785 0.122509055 -0.11253713 0.015827755 -0.058084264 0.064888276 0.05739761
0.058063243 -0.036265012 0.10479808 0.12126049 0.1084907 -0.06613279 0.022898154 0.05226627
-0.016288 -0.11158713 0.0236243 0.050900217 -0.123408146 0.010518427 0.04987672 -0.121842146
0.05595983 -0.10218077 0.10344032 -0.04845811 -0.11022663 0.016314551 0.006930377 -0.116178855
00000000: 7001 db3d a391 ccbd 512b bbbd 9753 333c
00000010: dd0d f8bd fdd9 b0bd f242 443d fda8 84bd
00000020: 102a d93d bcaf 2f3d 1e2e 5abc 0b92 4e3a
00000030: 09a4 8b3d 5698 803d a237 ddbc a0f4 bcbc
00000040: 4aba bc3d 39ff 043d ad40 cabd 3bbc 88bd
00000050: 6909 c43d 47c6 fb3b 6c75 05bd e3c0 aabd
00000060: 062f b83d 30d1 c13d ef01 7cbd d5b2 d7bd
00000070: dcf4 8e3d 5ce0 c33d 4dab 093c 6013 a83d
00000080: 3290 f0bd b478 e2bd 07e6 fa3d de79 e6bd
00000090: 35a9 813c c4e9 6dbd 25e4 843d c219 6b3d
000000a0: b9d3 6d3d 9f8a 14bd 60a0 d63d 6b57 f83d
000000b0: 5f30 de3d a170 87bd e994 bb3c 2815 563d
000000c0: 696e 85bc cb87 e4bd bf87 c13c bf7c 503d
000000d0: 69bd fcbd 7b55 2c3c 884b 4c3d 6088 f9bd
000000e0: 2236 653d 2744 d1bd 85d8 d33d 037c 46bd
000000f0: 80be e1bd 18a6 853c 3718 e33b 2eef edbd
